tf_model_optimization/model_pruned_quantized.tflite (tflite, 9968 bytes, 5 tensors)

conv2d_1/bias f4 [24]
00000000: d237 a4bd 588b 0bbe db05 ee3a 74ba 4dbd
00000010: 4527 06bd 4f0c d7bc 046b 86bd 5578 03be
00000020: 7c29 6ebd 7e3b 8f3c fa67 c9bd 8801 6b3e
00000030: a11e 28be 28a4 8fbd 885a adbe 7a9f 703d
00000040: a636 1e3e f626 96be 838f 85be 5afa f3bc
00000050: eb06 05be b573 24be 0536 25be a2e6 6bbe
-0.080184594 -0.13627374 0.0018159704 -0.050226644 -0.032752294 -0.026250986 -0.0656338 -0.12838872
-0.05814503 0.017484423 -0.09834285 0.22949803 -0.16417934 -0.07013732 -0.33858132 0.05874584
0.15450534 -0.293266 -0.26086053 -0.029782463 -0.1299092 -0.16059764 -0.16133888 -0.23037198

conv2d/bias f4 [12]
00000000: c4e0 1f3e 8752 1cbc a054 1c3d 5da0 6a3c
00000010: ef65 06bd 4ddf 3ebc 7a7f c43d d3b1 95bc
00000020: cc7d 2c3d 55a3 03bd 6337 8cbd 6584 253d
0.15613085 -0.00954116 0.038166642 0.01432046 -0.032812055 -0.011649919 0.09594627 -0.01827327
0.042112157 -0.032138187 -0.06846502 0.040409464

sequential/dense/MatMul f4 [1, 600]
00000000: 0000 0000 37d4 b6be 0000 0080 66ea 91be
00000010: 0000 0000 d509 61be 14c3 38be 4188 3fbe
00000020: 0000 0000 0000 0080 0000 0000 1efb a53e
00000030: 4c68 88be 0000 0000 0000 0080 0000 0080
00000040: 0000 0080 0000 0000 0000 0080 0000 0080
00000050: 83f7 e5be 0000 0080 0000 0080 0000 0000
00000060: 0000 0000 9261 b53e 0000 0000 0000 0080
00000070: 354c 30be 0000 0000 9def 12be 0000 0000
00000080: 0000 0080 9b97 463e 0000 0000 b619 e63e
00000090: 3a2d adbe 0000 0080 0000 0000 f268 573e
000000a0: ec68 fd3e 0000 0000 0e44 b6be 0000 0080
000000b0: 8195 a6be 0000 0080 0000 0000 0000 0080
000000c0: 3c72 14bf 7574 253f 0000 0000 982e 383f
000000d0: 8526 26bf 0000 0000 0000 0080 0000 0000
000000e0: 0000 0080 97ca c93e 0000 0000 c35c f13e
000000f0: 0000 0080 0000 0000 0000 0080 ee25 5c3f
00000100: 1f2f d93e bc91 b13e 0000 0000 0000 0080
00000110: 0000 0080 0000 0000 0000 0000 0000 0080
00000120: 7709 07bf e32c 683e a6e2 c23e 11cb 443f
00000130: b339 c0be 0000 0000 0000 0000 eee7 9e3e
00000140: 0000 0000 e7f3 bb3e 78ce aabe 0c0d b33e
00000150: 2116 103f 0000 0000 0000 0080 20c3 ad3e
00000160: 0000 0080 0000 0000 0000 0080 0000 0080
00000170: 0000 0000 d93b 943e 0000 0000 a49c d9be
00000180: 0000 0000 0000 0000 e0e9 0a3f 0000 0080
00000190: 7839 86be 0000 0000 0000 0000 0000 0080
000001a0: 0000 0080 0000 0000 96de 8ebe 0000 0000
000001b0: 0000 0080 0000 0000 6fee 93be 0000 0000
000001c0: 0000 0000 0000 0080 0000 0080 0000 0000
000001d0: 0000 0080 7824 d33e 0000 0000 b4a3 b7be
000001e0: 0000 0080 5128 9dbe 0000 0000 0000 0000
000001f0: 0000 0080 0000 0080 b739 43be 0000 0000
00000200: adcd 66be 0000 0080 0000 0080 0000 0080
00000210: 0000 0080 0000 0000 0000 0080 0000 0080
00000220: 0000 0080 0000 0000 0000 0080 0000 0000
00000230: 9c36 efbe 0000 0080 0000 0080 0000 0000
00000240: 0000 0080 0000 0000 0000 0000 0000 0080
00000250: 0000 0080 0000 0000 0000 0000 0000 0000
00000260: 0000 0080 0000 0080 0000 0080 3787 013f
00000270: 0000 0000 0000 0080 0000 0080 0000 0000
00000280: c582 a03e 0000 0000 0000 0000 0000 0080
00000290: 2478 cbbe 4ae7 fc3e 0000 0080 0000 0000
000002a0: 0000 0080 0000 0000 0000 0080 0000 0000
000002b0: 0000 0000 0000 0000 0000 0000 0000 0080
000002c0: 0000 0000 f06f 843e 0000 0080 cf16 ee3e
000002d0: 0000 0000 0000 0000 8d10 e5be 0000 0000
000002e0: 0000 0000 0000 0080 0000 0080 0000 0080
000002f0: 0000 0000 0000 0080 0000 0080 0000 0080
00000300: 0000 0080 0000 0080 0000 0000 0000 0000
00000310: 0000 0000 0000 0000 0000 0000 0000 0000
00000320: 9716 a43e 0000 0080 0000 0080 0000 0080
00000330: 0000 0080 0000 0080 0000 0000 0000 0080
00000340: 8734 793e e0cb b3be 0000 0080 0000 0000
00000350: 0000 0000 0000 0080 0000 0080 0000 0080
00000360: 0000 0000 0000 0000 0000 0080 50fc 6cbe
00000370: 0000 0000 0000 0000 0000 0000 0000 0080
00000380: 0000 0000 0000 0000 0000 0000 0000 0080
00000390: 0000 0000 0000 0000 0000 0080 0000 0000
000003a0: 0000 0080 0000 0000 0000 0000 0000 0080
000003b0: 0000 0000 0000 0000 0000 0080 5c21 68be
000003c0: 0000 0080 ac01 a5be 0000 0000 0000 0000
000003d0: 0000 0080 0000 0080 0000 0080 0000 0000
000003e0: 0000 0000 0000 0080 0000 0080 0000 0080
000003f0: 0000 0000 0000 0080 0000 0080 bca3 41be
0.0 -0.35708782 -0.0 -0.28499144 0.0 -0.21976407 -0.18043166 -0.1870432
0.0 -0.0 0.0 0.3241815 -0.26642072 0.0 -0.0 -0.0
-0.0 0.0 -0.0 -0.0 -0.449154 -0.0 -0.0 0.0
0.0 0.35426003 0.0 -0.0 -0.1721657 0.0 -0.14349218 0.0
-0.0 0.1939377 0.0 0.4494149 -0.33823568 -0.0 0.0 0.21036127
0.49494112 0.0 -0.35598797 -0.0 -0.32535937 -0.0 0.0 -0.0
-0.5798681 0.64630824 0.0 0.71946096 -0.64902526 0.0 -0.0 0.0
-0.0 0.39412376 0.0 0.47141084 -0.0 0.0 -0.0 0.85995376
0.42418763 0.346815 0.0 -0.0 -0.0 0.0 0.0 -0.0
-0.5274882 0.22673373 0.38063544 0.76872355 -0.3754402 0.0 0.0 0.31036323
0.0 0.3670952 -0.33360648 0.3497089 0.56283766 0.0 -0.0 0.3393793
-0.0 0.0 -0.0 -0.0 0.0 0.2895191 0.0 -0.4250232
0.0 0.0 0.54263115 -0.0 -0.2621572 0.0 0.0 -0.0
-0.0 0.0 -0.27904195 0.0 -0.0 0.0 -0.28892848 0.0
0.0 -0.0 -0.0 0.0 -0.0 0.4123876 0.0 -0.35867083
-0.0 -0.3069482 0.0 0.0 -0.0 -0.0 -0.19064985 0.0
-0.22539397 -0.0 -0.0 -0.0 -0.0 0.0 -0.0 -0.0
-0.0 0.0 -0.0 0.0 -0.4672135 -0.0 -0.0 0.0
-0.0 0.0 0.0 -0.0 -0.0 0.0 0.0 0.0
-0.0 -0.0 -0.0 0.50596946 0.0 -0.0 -0.0 0.0
0.3134977 0.0 0.0 -0.0 -0.39740098 0.4939521 -0.0 0.0
-0.0 0.0 -0.0 0.0 0.0 0.0 0.0 -0.0
0.0 0.25866652 -0.0 0.46501777 0.0 0.0 -0.4473919 0.0
0.0 -0.0 -0.0 -0.0 0.0 -0.0 -0.0 -0.0
-0.0 -0.0 0.0 0.0 0.0 0.0 0.0 0.0
0.32048485 -0.0 -0.0 -0.0 -0.0 -0.0 0.0 -0.0
0.24336444 -0.35116482 -0.0 0.0 0.0 -0.0 -0.0 -0.0
0.0 0.0 -0.0 -0.23143125 0.0 0.0 0.0 -0.0
0.0 0.0 0.0 -0.0 0.0 0.0 -0.0 0.0
-0.0 0.0 0.0 -0.0 0.0 0.0 -0.0 -0.22668976
-0.0 -0.32227838 0.0 0.0 -0.0 -0.0 -0.0 0.0
0.0 -0.0 -0.0 -0.0 0.0 -0.0 -0.0 -0.18910116

sequential/conv2d/Conv2D f4 [12, 3, 3, 1]
00000000: 0000 0080 0000 0080 4cad e33e 0000 0000
00000010: 4d15 49bf 0000 0080 0000 0000 0000 0080
00000020: 0000 0080 0000 0080 0000 0080 0000 0080
00000030: 0000 0000 0000 0080 0000 0000 0000 0080
00000040: 0000 0000 0000 0080 9be0 fa3e 0000 0000
00000050: 0000 0000 0000 0000 aa97 17bf 0000 0000
00000060: 0000 0080 0000 0080 0000 0080 0000 0080
00000070: 3a87 21bf e3ca 153f 4e40 d4be 0000 0080
00000080: cfca 293f b0da aabe 0000 0000 0000 0000
00000090: 0000 0000 0000 0000 0000 0000 0000 0000
000000a0: 0000 0000 bae2 da3e 0000 0080 0000 0080
000000b0: 5292 ee3e 0000 0000 c8cf 30bf 0000 0000
000000c0: 0000 0000 0000 0000 0000 0000 68c7 133f
000000d0: 0000 0000 0000 0000 0000 0080 0000 0080
000000e0: d641 fcbe c877 083f 0000 0000 03f7 00bf
000000f0: 0000 0080 0000 0080 0000 0080 0000 0000
00000100: 0000 0080 0000 0000 0000 0000 0000 0000
00000110: 0000 0000 0000 0000 0000 0000 0000 0000
00000120: 429e 4abf 0000 0080 0000 0080 0000 0080
00000130: 0000 0080 0000 0080 9025 493f 0000 0080
00000140: 0000 0080 0000 0000 0000 0080 0000 0080
00000150: 0000 0000 0000 0080 0000 0080 0000 0000
00000160: 9a46 163f 0000 0080 0000 0000 0000 0000
00000170: 535b 213f 0000 0000 e192 0d3f 0000 0000
00000180: 0000 0000 0000 0000 0000 0000 0000 0080
00000190: 0000 0000 cf2d 043f 0000 0000 0000 0000
000001a0: 0000 0080 0000 0000 0000 0000 0000 0000
-0.0 -0.0 0.44468153 0.0 -0.7854813 -0.0 0.0 -0.0
-0.0 -0.0 -0.0 -0.0 0.0 -0.0 0.0 -0.0
0.0 -0.0 0.48999485 0.0 0.0 0.0 -0.59215796 0.0
-0.0 -0.0 -0.0 -0.0 -0.63096964 0.58512706 -0.4145531 -0.0
0.66325086 -0.3336997 0.0 0.0 0.0 0.0 0.0 0.0
0.0 0.42751104 -0.0 -0.0 0.4659601 0.0 -0.6906705 0.0
0.0 0.0 0.0 0.57726145 0.0 0.0 -0.0 -0.0
-0.4926898 0.5330777 0.0 -0.5037691 -0.0 -0.0 -0.0 0.0
-0.0 0.0 0.0 0.0 0.0 0.0 0.0 0.0
-0.7914773 -0.0 -0.0 -0.0 -0.0 -0.0 0.7857294 -0.0
-0.0 0.0 -0.0 -0.0 0.0 -0.0 -0.0 0.0
0.5870148 -0.0 0.0 0.0 0.63029975 0.0 0.55302244 0.0
0.0 0.0 0.0 -0.0 0.0 0.516324 0.0 0.0
-0.0 0.0 0.0 0.0

sequential/conv2d_1/Conv2D i1 [24, 3, 3, 12]
00000000: 0000 ebd0 0000 0031 0000 0023 0000 819e
00000010: 1e00 e73c 0000 002e 3600 eaaa 0000 0026
00000020: 0000 0000 0000 00ba 0000 0000 0000 0022
00000030: 3300 0000 0000 cd00 0000 001c f600 a600
00000040: 0000 0000 0000 0000 2900 0000 0037 0000
00000050: 1700 0000 0000 0000 0027 0000 3800 0000
00000060: 1e00 c800 0000 0000 0000 2100 0000 0000
00000070: 0000 0000 0000 0000 0000 0097 007f 3100
00000080: 00c6 0000 0000 0000 d800 00a0 0000 d0a1
00000090: 0000 0042 003d 0000 c300 1d00 0000 0000
000000a0: 0040 3d00 0000 0000 0000 0000 0038 00d5
000000b0: 0000 00dc 0000 003e 2b00 bc00 ab00 0000
000000c0: 0000 0000 003a 3600 0000 0000 0000 0000
000000d0: 0000 0000 0000 0000 dd00 4c00 d300 0000
000000e0: 00a8 a4b0 0000 002b 00d3 0000 0000 00c5
000000f0: 0000 0000 0000 00d7 0000 0000 0000 0000
0 0 -21 -48 0 0 0 49
0 0 0 35 0 0 -127 -98
30 0 -25 60 0 0 0 46
54 0 -22 -86 0 0 0 38
0 0 0 0 0 0 0 -70
0 0 0 0 0 0 0 34
51 0 0 0 0 0 -51 0
0 0 0 28 -10 0 -90 0
0 0 0 0 0 0 0 0
41 0 0 0 0 55 0 0
23 0 0 0 0 0 0 0
0 39 0 0 56 0 0 0
30 0 -56 0 0 0 0 0
0 0 33 0 0 0 0 0
0 0 0 0 0 0 0 0
0 0 0 -105 0 127 49 0
0 -58 0 0 0 0 0 0
-40 0 0 -96 0 0 -48 -95
0 0 0 66 0 61 0 0
-61 0 29 0 0 0 0 0
0 64 61 0 0 0 0 0
0 0 0 0 0 56 0 -43
0 0 0 -36 0 0 0 62
43 0 -68 0 -85 0 0 0
0 0 0 0 0 58 54 0
0 0 0 0 0 0 0 0
0 0 0 0 0 0 0 0
-35 0 76 0 -45 0 0 0
0 -88 -92 -80 0 0 0 43
0 -45 0 0 0 0 0 -59
0 0 0 0 0 0 0 -41
0 0 0 0 0 0 0 0
