tf_model_optimization/model_quantized.tflite (tflite, 9968 bytes, 5 tensors)

conv2d_1/bias f4 [24]
0	0xbd87f167	-0.06637841
1	0xbdccf675	-0.100079454
2	0x3ccb521b	0.024819424
3	0x3c4725c3	0.012154999
4	0x3b2b2c10	0.0026118793
5	0xbd3fafb9	-0.04679844
6	0xbe012373	-0.12611179
7	0xbdf728bf	-0.120683186
8	0xbd1eae12	-0.038740225
9	0x3d104f66	0.03523197
10	0xbdbd151f	-0.09232544
11	0x3e1d3b59	0.1535467
12	0xbdab65aa	-0.08369
13	0xbd6c9aee	-0.05776494
14	0xbe0e8553	-0.13918047
15	0x3db96f1f	0.09054398
16	0x3da8652f	0.08222424
17	0xbe0a3ee5	-0.13500555
18	0xbe6ee17e	-0.23328206
19	0xbcc8296a	-0.02443381
20	0xbd8f0860	-0.06984019
21	0xbdac3873	-0.08409204
22	0xbd97d04a	-0.07412775
23	0xbda03655	-0.07822863

conv2d/bias f4 [12]
0	0x3dd46f41	0.103727825
1	0xbc1c5287	-0.00954116
2	0x3c3d754d	0.011563611
3	0xbcc62420	-0.024187148
4	0xbde58326	-0.11206655
5	0xbaad9b73	-0.001324518
6	0x3d92b7c3	0.07163956
7	0xbc9be193	-0.01902846
8	0xbcffd356	-0.031228703
9	0xbdb20a35	-0.08693353
10	0xbd4f3831	-0.050590698
11	0xbd570742	-0.052497156

sequential/dense/MatMul f4 [1, 600]
0	0xbd8131cf	-0.06308328
1	0xbe37d030	-0.17950511
2	0xbd91252e	-0.070871696
3	0xbe3bcb2a	-0.1833922
4	0xbc8ce438	-0.017198667
5	0xbe46c194	-0.19409782
6	0xbdeeec44	-0.11666158
7	0xbe231086	-0.15924272
8	0xbe1da844	-0.1539622
9	0x3d61448e	0.05499702
10	0xbdf726b7	-0.12067931
11	0x3e88a440	0.26687813
12	0xbe23d339	-0.15998544
13	0x3d385d78	0.045011014
14	0xbd1ddde3	-0.038541686
15	0xbd446ec4	-0.047957197
16	0x3dfac50c	0.12244615
17	0xbd979401	-0.074012764
18	0xbcbce167	-0.023056699
19	0x3d8d36a5	0.06895188
20	0xbea3861a	-0.3193825
21	0xbd217656	-0.039419495
22	0xbdfc8341	-0.12329722
23	0xbd9a3239	-0.075291105
24	0xbd6f106a	-0.058365263
25	0x3ea742fd	0.32668296
26	0xbcc903f7	-0.024538023
27	0x3d1a599d	0.037683118
28	0xbe36bf66	-0.1784645
29	0xbe053823	-0.13009696
30	0xbe0ea726	-0.1393095
31	0xbe1f0b38	-0.15531623
32	0x3b2aabc7	0.0026042329
33	0x3e4cdc0c	0.20005816
34	0xbb0c9108	-0.002144875
35	0x3e9b1038	0.3028581
36	0xbe4f2c43	-0.20231728
37	0xbd5ecf26	-0.05439677
38	0xbd819710	-0.06327641
39	0x3e3c33c8	0.18379128
40	0x3eb8a9ac	0.3606695
41	0xbd5879d8	-0.052850574
42	0xbe6728a5	-0.22574098
43	0x3c327631	0.010892437
44	0xbe30bdc5	-0.17259891
45	0xbd9d2f7f	-0.07675075
46	0xbc97f9c8	-0.018551722
47	0xbcd52064	-0.026016422
48	0xbea2543a	-0.31704885
49	0x3ef9ec75	0.48813215
50	0xbd182faa	-0.03715483
51	0x3edea3ac	0.43484247
52	0xbed18701	-0.40923312
53	0x3d91572f	0.07096707
54	0x3da2feb0	0.07958734
55	0x3d0044d9	0.03131566
56	0x3d8d8789	0.06910617
57	0x3e9548bf	0.29157063
58	0xbdb4ecf2	-0.08834256
59	0x3ec75da5	0.38938633
60	0x3e002dcf	0.12517475
61	0x3d58b981	0.052911285
62	0xbb7c8a4c	-0.003853458
63	0x3f0c4db2	0.54806054
64	0x3eab5193	0.33460674
65	0x3e4c6dc7	0.19963752
66	0xbd3c9344	-0.04603888
67	0x3ce85c6b	0.02836438
68	0xbd597dc8	-0.05309847
69	0xbdfb4847	-0.12269645
70	0xbd6b2c63	-0.057415377
71	0x3e155897	0.14584576
72	0xbe9f11df	-0.31068322
73	0x3e2e7f0a	0.17040649
74	0x3e8ff99d	0.28120127
75	0x3ed15050	0.40881586
76	0xbe7ef8ab	-0.24899547
77	0xbdcc00b6	-0.09961073
78	0x3c9a983c	0.01887142
79	0x3e0d1e3a	0.13781062
80	0x3d8e784f	0.06956541
81	0x3e324ac1	0.17411329
82	0xbe68951d	-0.22713132
83	0x3e88171a	0.26580125
84	0x3ea5e3dd	0.32400408
85	0x3cf92bbe	0.030416366
86	0xbd8ed101	-0.06973458
87	0x3e5feef3	0.21868496
88	0xbd2c55ad	-0.042073894
89	0xbd9063d9	-0.070502944
90	0x3e31aca2	0.1735101
91	0x3dc39ced	0.095514156
92	0x3daf6788	0.08564669
93	0x3e84eefb	0.25963578
94	0x3dce159f	0.10062718
95	0xbe88b8ee	-0.2670359
96	0xbcc7383a	-0.024318803
97	0xbc9a7052	-0.018852387
98	0x3ea51d01	0.3224869
99	0xbba13e63	-0.004920767
100	0xbe1d2b00	-0.15348434
101	0xbdae0837	-0.084976606
102	0xbd1824b0	-0.037144363
103	0x3a5a80d1	0.0008335235
104	0xbde4b60c	-0.11167535
105	0xbdf6c3ce	-0.120490655
106	0xbe5e3032	-0.21698073
107	0x3dd9a6f7	0.10627549
108	0x3ccdf99d	0.025143439
109	0x3d7b3255	0.061327297
110	0xbe385042	-0.17999366
111	0x3db2889e	0.08717464
112	0xbe3a8c3a	-0.18217555
113	0xbe11df2e	-0.14245293
114	0x3e46dd79	0.19420423
115	0x3d876c8c	0.066125005
116	0xbcd0612a	-0.025436956
117	0x3e88d69e	0.2672624
118	0x3c5093f2	0.012730585
119	0xbe821402	-0.2540589
120	0xbdadd347	-0.084875636
121	0xbe20cc1b	-0.1570286
122	0xbca71bf4	-0.020399071
123	0xbd8164ab	-0.06318029
124	0xbdc13224	-0.09433392
125	0xbc954ce6	-0.018225145
126	0xbe36b0fe	-0.17840955
127	0xbd05572b	-0.032553833
128	0xbe52dd20	-0.20592165
129	0xbdb89241	-0.09012271
130	0xbda50c89	-0.080590315
131	0x3e0a8537	0.1352738
132	0xbd4081f5	-0.046998937
133	0xbb7ff945	-0.0039058488
134	0xbc360ae6	-0.011110997
135	0xbde123b5	-0.10993139
136	0x3beaa7c2	0.0071611116
137	0xbda63c66	-0.08116989
138	0x3d95e993	0.07319941
139	0x3cc0d715	0.02354006
140	0xbe9312bc	-0.2872523
141	0x3db2c2ac	0.08728537
142	0xbdf11104	-0.117708236
143	0xbd92eea3	-0.071744226
144	0xbe0970ca	-0.13421932
145	0xbdebbd99	-0.11510772
146	0x3df15a8e	0.1178485
147	0xbe2a58e7	-0.16635476
148	0xbdf35820	-0.11882043
149	0xbdef67d6	-0.11689727
150	0xbdcd07b9	-0.100112386
151	0x3d83d17e	0.06436442
152	0xbdf57a42	-0.119862095
153	0x3e3abf32	0.18236998
154	0x3da47d56	0.080317184
155	0x3eca8e03	0.3956147
156	0xbdb34d92	-0.0875503
157	0x3ca30745	0.019900927
158	0xbd923790	-0.07139504
159	0x3e0e2e3e	0.13884827
160	0x3e906a61	0.2820616
161	0xbd1e5c09	-0.03866199
162	0xbdf47492	-0.119362965
163	0x3da7875b	0.08180114
164	0xbe396469	-0.1810471
165	0x3e667f3d	0.22509475
166	0xbdb9b6e7	-0.09068089
167	0x3b5f79f5	0.0034099792
168	0xbd549039	-0.051895354
169	0xbe03d669	-0.1287476
170	0x3e131ae1	0.14365722
171	0x3dfb4fe4	0.12271097
172	0xbdac91f6	-0.08426277
173	0xbcc6df50	-0.024276406
174	0xbbe8fefc	-0.0071104746
175	0x3d6a359c	0.057180032
176	0xbe062ad7	-0.1310228
177	0x3e62d614	0.22151977
178	0x3d36e829	0.044655
179	0x3ec0c2ee	0.3764872
180	0x3e0f54f6	0.13997254
181	0xbd9b2538	-0.07575458
182	0xbe21ffc5	-0.15820225
183	0x3df12857	0.11775272
184	0x3e15f8c7	0.14645682
185	0x3b8b4d8b	0.004251187
186	0xbdb634f2	-0.08896817
187	0xbda23dc0	-0.07921934
188	0x3daee366	0.085394666
189	0x3db81558	0.08988446
190	0xbd859903	-0.06523325
191	0x3d8662ba	0.06561799
192	0x3d0576f0	0.03258413
193	0x3df6b776	0.12046711
194	0xbd88bf20	-0.06677079
195	0x3e1d002f	0.15332101
196	0x3da761fa	0.081729844
197	0xbd0cfec1	-0.03442264
198	0xbc78f1ab	-0.015194337
199	0x3def5ab6	0.116872236
200	0x3e103468	0.14082491
201	0x3dbe202b	0.09283479
202	0xbd364964	-0.044503585
203	0x3ccd9bb9	0.025098668
204	0xbd74147c	-0.059589848
205	0xbcdc9bb7	-0.02692972
206	0xbd4b19de	-0.049585216
207	0x3c8855d9	0.016642498
208	0x3dde8834	0.108658224
209	0xbe0cf1ff	-0.13764189
210	0xbdb9d675	-0.090741076
211	0xbd0dff96	-0.034667574
212	0xbca13685	-0.019679317
213	0xbd8a04fb	-0.06739231
214	0xbd017490	-0.031605303
215	0xbe0ef7ef	-0.13961767
216	0xbd4c9274	-0.049944356
217	0xbd6c73c8	-0.057727605
218	0x3c4cf686	0.012509948
219	0xbe69f72d	-0.22848196
220	0x3c9f6daa	0.019461472
221	0xbd231ba5	-0.039821286
222	0xbd8da817	-0.06916826
223	0xbce6f18d	-0.028191352
224	0xbe0efaf4	-0.13962919
225	0x3e00c660	0.12575674
226	0xbde40196	-0.11133115
227	0x3debee81	0.115201004
228	0xbe0ecea8	-0.1394602
229	0x3d951fe6	0.07281475
230	0xbd0d6bdc	-0.03452669
231	0x3d054824	0.0325395
232	0x3d5132fa	0.051074006
233	0xbcdb0c48	-0.026739255
234	0x3b8491f3	0.004045719
235	0x3da7289c	0.081620425
236	0x3d489788	0.048972636
237	0x3de5ad20	0.112146616
238	0xbadf9a3d	-0.0017059516
239	0xbe10f44d	-0.14155693
240	0x3d6f0ee7	0.05836382
241	0xbe9ed0e4	-0.31018746
242	0x3e04e07a	0.12976256
243	0xbbedddcc	-0.0072591063
244	0x3cda9c2c	0.026685797
245	0xbd6a4a9c	-0.05720006
246	0x3da27bae	0.07933746
247	0x3cedccb4	0.029028274
248	0xbdd9bbf1	-0.1063155
249	0xbe3a331a	-0.18183556
250	0xbd2ec592	-0.042668886
251	0x3db2a6de	0.08723234
252	0x3da457f4	0.08024588
253	0xbdca9fec	-0.09893784
254	0xbda94607	-0.0826531
255	0xbe7331c4	-0.23749453

sequential/conv2d/Conv2D f4 [12, 3, 3, 1]
0	0xbdb9c09e	-0.09069942
1	0xbb2a4f9f	-0.00259874
2	0x3eb536a3	0.35393247
3	0x3d41dc09	0.047328983
4	0xbf12d582	-0.5735704
5	0xbe8c8ab7	-0.2744958
6	0x3e8a2497	0.2698104
7	0x3d9024e3	0.070382856
8	0xbe2907d8	-0.16506898
9	0xbd00deff	-0.031462666
10	0xbcd1a074	-0.025589205
11	0xbe0ffacf	-0.1406052
12	0x3c4a3257	0.0123411035
13	0xbafeeaae	-0.0019448602
14	0x3cbea119	0.023270177
15	0xbc97db66	-0.018537235
16	0x3b0abd35	0.0021169905
17	0xbe0edb24	-0.13950783
18	0x3ed92548	0.42411256
19	0xbe4a1422	-0.19734243
20	0xbe85bcbc	-0.26120555
21	0x3e43d125	0.19122751
22	0xbed7e2f0	-0.42165327
23	0x3cfc8aac	0.030827843
24	0xbe7aef00	-0.24505234
25	0xbe933569	-0.28751686
26	0x3ec84f90	0.391232
27	0xbde9bd75	-0.11413089
28	0xbeac32c6	-0.33632487
29	0x3ee4c44f	0.44681022
30	0xbe7c205d	-0.2462172
31	0xbe2d3513	-0.16914777
32	0x3eeb19a9	0.45918015
33	0xbedc0304	-0.4297105
34	0x3e1dda8d	0.15415402
35	0x3e182949	0.14859499
36	0x3e52cac1	0.20585157
37	0x3da55abe	0.08073948
38	0xbdf80be3	-0.12111642
39	0x3d7e6d22	0.062115796
40	0x3b82e44e	0.003994501
41	0x3e8c31a5	0.27381626
42	0xbdb23699	-0.0870182
43	0xbe0dc6e5	-0.13845403
44	0x3ea1c878	0.31598258
45	0x3e283c07	0.16429149
46	0xbee5401c	-0.44775474
47	0x3e86bbd4	0.26315176
48	0x3de58ddb	0.112086974
49	0xbe6b5967	-0.22983323
50	0x3dbf5b9d	0.09343646
51	0x3ed40576	0.41410416
52	0xbe93a333	-0.2883545
53	0xbe18f763	-0.1493812
54	0x3d9e5f88	0.07733065
55	0x3da54248	0.08069283
56	0xbebacbcc	-0.3648361
57	0x3ea76053	0.32690677
58	0xbd857f5a	-0.06518431
59	0xbe9c7736	-0.305597
60	0x3e4c09ea	0.19925657
61	0xbd487b91	-0.048945967
62	0xbe2132f9	-0.15742101
63	0x3e2f1ed0	0.17101598
64	0x3dd52bf4	0.10408774
65	0x3e3f9ef4	0.1871298
66	0x3e5975c1	0.21236326
67	0x3e63347f	0.22187994
68	0x3dce5c8b	0.10076245
69	0xbeb193f1	-0.34683183
70	0xbec389ef	-0.38191172
71	0xbd4f4a06	-0.050607704
72	0xbeed794c	-0.46381605
73	0xbe6a4b1e	-0.22880217
74	0xbdcd921d	-0.100376345
75	0xbe3f7420	-0.18696642
76	0x3e4ed691	0.20199038
77	0x3dd3b638	0.1033749
78	0x3ea95b17	0.3307731
79	0x3e9351e5	0.28773418
80	0x3bfcc34b	0.0077137104
81	0xbec5c838	-0.38629317
82	0x3e63363f	0.22188662
83	0x3dd80be8	0.10549146
84	0x3e262f8f	0.1622908
85	0xbe2bb8f5	-0.16769774
86	0x3e565dcf	0.20934223
87	0x3d175770	0.03694862
88	0x3ea2897d	0.3174552
89	0x3e424a54	0.18973666
90	0x3dccc629	0.099987336
91	0x3e21a78d	0.15786572
92	0x3e997d97	0.2997863
93	0xbe00349f	-0.12520073
94	0x3ea8d0b8	0.3297174
95	0x3e2728ff	0.16324233
96	0x3c8993b2	0.01679406
97	0x3e80f574	0.25187266
98	0xbd1b5a51	-0.03792793
99	0x3e17a6f2	0.14809778
100	0x3e345138	0.17609107
101	0x3eb16ef3	0.3465496
102	0x3e4bc423	0.19899039
103	0x3cca885f	0.02472323
104	0x3d803860	0.06260753
105	0xbd926d89	-0.071497984
106	0xbdcdaaf3	-0.100423716
107	0xbe6ab291	-0.2291968

sequential/conv2d_1/Conv2D i1 [24, 3, 3, 12]
0	0x01	1
1	0xeb	-21
2	0xb6	-74
3	0xa8	-88
4	0x0f	15
5	0x10	16
6	0xf6	-10
7	0x37	55
8	0xf9	-7
9	0xfd	-3
10	0x0c	12
11	0x1c	28
12	0x1a	26
13	0x19	25
14	0x81	-127
15	0xad	-83
16	0x1c	28
17	0xb2	-78
18	0xbb	-69
19	0x48	72
20	0x0b	11
21	0x01	1
22	0xff	-1
23	0x23	35
24	0x39	57
25	0xf9	-7
26	0xbf	-65
27	0xc1	-63
28	0x14	20
29	0xf5	-11
30	0xfd	-3
31	0x31	49
32	0xeb	-21
33	0x04	4
34	0xfa	-6
35	0x1e	30
36	0x0d	13
37	0xe7	-25
38	0x0f	15
39	0xa0	-96
40	0xd4	-44
41	0x23	35
42	0x16	22
43	0x04	4
44	0xe7	-25
45	0xe8	-24
46	0xe8	-24
47	0x1d	29
48	0x1e	30
49	0xe4	-28
50	0xdd	-35
51	0xd7	-41
52	0x0d	13
53	0x0c	12
54	0xbf	-65
55	0xf1	-15
56	0xe4	-28
57	0xf4	-12
58	0x02	2
59	0x1d	29
60	0x34	52
61	0x19	25
62	0xae	-82
63	0xe3	-29
64	0x19	25
65	0xe6	-26
66	0xee	-18
67	0xe9	-23
68	0x05	5
69	0x13	19
70	0xf9	-7
71	0xed	-19
72	0x3e	62
73	0x11	17
74	0x15	21
75	0x15	21
76	0x14	20
77	0x24	36
78	0x00	0
79	0xfb	-5
80	0x2f	47
81	0x09	9
82	0xe5	-27
83	0xfe	-2
84	0x07	7
85	0xfb	-5
86	0xec	-20
87	0xe4	-28
88	0x01	1
89	0x20	32
90	0xe6	-26
91	0x12	18
92	0x3e	62
93	0x00	0
94	0x1c	28
95	0xfc	-4
96	0x21	33
97	0x1e	30
98	0xd6	-42
99	0x24	36
100	0x03	3
101	0x2a	42
102	0xfb	-5
103	0x20	32
104	0x1b	27
105	0x1a	26
106	0x27	39
107	0x0a	10
108	0xe4	-28
109	0xf6	-10
110	0xf6	-10
111	0xf1	-15
112	0x1c	28
113	0x23	35
114	0x27	39
115	0x01	1
116	0x0a	10
117	0x1c	28
118	0x0d	13
119	0x0c	12
120	0x37	55
121	0xf1	-15
122	0xe9	-23
123	0xa4	-92
124	0xdf	-33
125	0x76	118
126	0x3d	61
127	0xeb	-21
128	0xdc	-36
129	0x98	-104
130	0xd1	-47
131	0xdc	-36
132	0xd3	-45
133	0x10	16
134	0x08	8
135	0xfc	-4
136	0xa9	-87
137	0x0e	14
138	0x00	0
139	0x81	-127
140	0xef	-17
141	0xed	-19
142	0xbc	-68
143	0xa3	-93
144	0xdb	-37
145	0x02	2
146	0xee	-18
147	0x4b	75
148	0x27	39
149	0x78	120
150	0xfb	-5
151	0x17	23
152	0xd1	-47
153	0x17	23
154	0x34	52
155	0xfc	-4
156	0x29	41
157	0x08	8
158	0x05	5
159	0x24	36
160	0x19	25
161	0x6a	106
162	0x53	83
163	0xdb	-37
164	0x17	23
165	0xe7	-25
166	0x21	33
167	0x0d	13
168	0x0d	13
169	0xeb	-21
170	0x02	2
171	0x0c	12
172	0xbd	-67
173	0x62	98
174	0xf8	-8
175	0xc8	-56
176	0xfb	-5
177	0xfa	-6
178	0xdc	-36
179	0xb6	-74
180	0xe8	-24
181	0x25	37
182	0xff	-1
183	0x48	72
184	0x34	52
185	0x2b	43
186	0x96	-106
187	0x13	19
188	0xb8	-72
189	0x2f	47
190	0xf1	-15
191	0xdf	-33
192	0x19	25
193	0xdf	-33
194	0xcc	-52
195	0x20	32
196	0x0b	11
197	0x43	67
198	0x3f	63
199	0x00	0
200	0x01	1
201	0x2d	45
202	0x1b	27
203	0x2a	42
204	0x0b	11
205	0xe6	-26
206	0x20	32
207	0xf7	-9
208	0xed	-19
209	0x1d	29
210	0x28	40
211	0xde	-34
212	0x19	25
213	0x04	4
214	0x11	17
215	0x11	17
216	0xc2	-62
217	0x1e	30
218	0x53	83
219	0xeb	-21
220	0xb1	-79
221	0xd1	-47
222	0xe7	-25
223	0xe7	-25
224	0xef	-17
225	0xc7	-57
226	0xa7	-89
227	0x94	-108
228	0x02	2
229	0xf4	-12
230	0x12	18
231	0x43	67
232	0xd7	-41
233	0xa3	-93
234	0xe2	-30
235	0xeb	-21
236	0xec	-20
237	0xfc	-4
238	0xec	-20
239	0xc0	-64
240	0x2f	47
241	0xe8	-24
242	0x26	38
243	0x2b	43
244	0xe6	-26
245	0x1c	28
246	0x2e	46
247	0xb5	-75
248	0x0a	10
249	0x06	6
250	0x1a	26
251	0xd9	-39
252	0xd7	-41
253	0x22	34
254	0x17	23
255	0xef	-17
