tf_model_optimization/model_baseline.tflite (tflite, 17016 bytes, 5 tensors)

conv2d_1/bias f4 [24]
-0.06637841 -0.100079454 0.024819424 0.012154999 0.0026118793 -0.04679844 -0.12611179 -0.120683186
-0.038740225 0.03523197 -0.09232544 0.1535467 -0.08369 -0.05776494 -0.13918047 0.09054398
0.08222424 -0.13500555 -0.23328206 -0.02443381 -0.06984019 -0.08409204 -0.07412775 -0.07822863
00000000: 67f1 87bd 75f6 ccbd 1b52 cb3c c325 473c
00000010: 102c 2b3b b9af 3fbd 7323 01be bf28 f7bd
00000020: 12ae 1ebd 664f 103d 1f15 bdbd 593b 1d3e
00000030: aa65 abbd ee9a 6cbd 5385 0ebe 1f6f b93d
00000040: 2f65 a83d e53e 0abe 7ee1 6ebe 6a29 c8bc
00000050: 6008 8fbd 7338 acbd 4ad0 97bd 5536 a0bd

conv2d/bias f4 [12]
0.103727825 -0.00954116 0.011563611 -0.024187148 -0.11206655 -0.001324518 0.07163956 -0.01902846
-0.031228703 -0.08693353 -0.050590698 -0.052497156
00000000: 416f d43d 8752 1cbc 4d75 3d3c 2024 c6bc
00000010: 2683 e5bd 739b adba c3b7 923d 93e1 9bbc
00000020: 56d3 ffbc 350a b2bd 3138 4fbd 4207 57bd

sequential/dense/MatMul f4 [1, 600]
-0.06308328 -0.17950511 -0.070871696 -0.1833922 -0.017198667 -0.19409782 -0.11666158 -0.15924272
-0.1539622 0.05499702 -0.12067931 0.26687813 -0.15998544 0.045011014 -0.038541686 -0.047957197
0.12244615 -0.074012764 -0.023056699 0.06895188 -0.3193825 -0.039419495 -0.12329722 -0.075291105
-0.058365263 0.32668296 -0.024538023 0.037683118 -0.1784645 -0.13009696 -0.1393095 -0.15531623
0.0026042329 0.20005816 -0.002144875 0.3028581 -0.20231728 -0.05439677 -0.06327641 0.18379128
0.3606695 -0.052850574 -0.22574098 0.010892437 -0.17259891 -0.07675075 -0.018551722 -0.026016422
-0.31704885 0.48813215 -0.03715483 0.43484247 -0.40923312 0.07096707 0.07958734 0.03131566
0.06910617 0.29157063 -0.08834256 0.38938633 0.12517475 0.052911285 -0.003853458 0.54806054
0.33460674 0.19963752 -0.04603888 0.02836438 -0.05309847 -0.12269645 -0.057415377 0.14584576
-0.31068322 0.17040649 0.28120127 0.40881586 -0.24899547 -0.09961073 0.01887142 0.13781062
0.06956541 0.17411329 -0.22713132 0.26580125 0.32400408 0.030416366 -0.06973458 0.21868496
-0.042073894 -0.070502944 0.1735101 0.095514156 0.08564669 0.25963578 0.10062718 -0.2670359
-0.024318803 -0.018852387 0.3224869 -0.004920767 -0.15348434 -0.084976606 -0.037144363 0.0008335235
-0.11167535 -0.120490655 -0.21698073 0.10627549 0.025143439 0.061327297 -0.17999366 0.08717464
-0.18217555 -0.14245293 0.19420423 0.066125005 -0.025436956 0.2672624 0.012730585 -0.2540589
-0.084875636 -0.1570286 -0.020399071 -0.06318029 -0.09433392 -0.018225145 -0.17840955 -0.032553833
-0.20592165 -0.09012271 -0.080590315 0.1352738 -0.046998937 -0.0039058488 -0.011110997 -0.10993139
0.0071611116 -0.08116989 0.07319941 0.02354006 -0.2872523 0.08728537 -0.117708236 -0.071744226
-0.13421932 -0.11510772 0.1178485 -0.16635476 -0.11882043 -0.11689727 -0.100112386 0.06436442
-0.119862095 0.18236998 0.080317184 0.3956147 -0.0875503 0.019900927 -0.07139504 0.13884827
0.2820616 -0.03866199 -0.119362965 0.08180114 -0.1810471 0.22509475 -0.09068089 0.0034099792
-0.051895354 -0.1287476 0.14365722 0.12271097 -0.08426277 -0.024276406 -0.0071104746 0.057180032
-0.1310228 0.22151977 0.044655 0.3764872 0.13997254 -0.07575458 -0.15820225 0.11775272
0.14645682 0.004251187 -0.08896817 -0.07921934 0.085394666 0.08988446 -0.06523325 0.06561799
0.03258413 0.12046711 -0.06677079 0.15332101 0.081729844 -0.03442264 -0.015194337 0.116872236
0.14082491 0.09283479 -0.044503585 0.025098668 -0.059589848 -0.02692972 -0.049585216 0.016642498
0.108658224 -0.13764189 -0.090741076 -0.034667574 -0.019679317 -0.06739231 -0.031605303 -0.13961767
-0.049944356 -0.057727605 0.012509948 -0.22848196 0.019461472 -0.039821286 -0.06916826 -0.028191352
-0.13962919 0.12575674 -0.11133115 0.115201004 -0.1394602 0.07281475 -0.03452669 0.0325395
0.051074006 -0.026739255 0.004045719 0.081620425 0.048972636 0.112146616 -0.0017059516 -0.14155693
0.05836382 -0.31018746 0.12976256 -0.0072591063 0.026685797 -0.05720006 0.07933746 0.029028274
-0.1063155 -0.18183556 -0.042668886 0.08723234 0.08024588 -0.09893784 -0.0826531 -0.23749453
00000000: cf31 81bd 30d0 37be 2e25 91bd 2acb 3bbe
00000010: 38e4 8cbc 94c1 46be 44ec eebd 8610 23be
00000020: 44a8 1dbe 8e44 613d b726 f7bd 40a4 883e
00000030: 39d3 23be 785d 383d e3dd 1dbd c46e 44bd
00000040: 0cc5 fa3d 0194 97bd 67e1 bcbc a536 8d3d
00000050: 1a86 a3be 5676 21bd 4183 fcbd 3932 9abd
00000060: 6a10 6fbd fd42 a73e f703 c9bc 9d59 1a3d
00000070: 66bf 36be 2338 05be 26a7 0ebe 380b 1fbe
00000080: c7ab 2a3b 0cdc 4c3e 0891 0cbb 3810 9b3e
00000090: 432c 4fbe 26cf 5ebd 1097 81bd c833 3c3e
000000a0: aca9 b83e d879 58bd a528 67be 3176 323c
000000b0: c5bd 30be 7f2f 9dbd c8f9 97bc 6420 d5bc
000000c0: 3a54 a2be 75ec f93e aa2f 18bd aca3 de3e
000000d0: 0187 d1be 2f57 913d b0fe a23d d944 003d
000000e0: 8987 8d3d bf48 953e f2ec b4bd a55d c73e
000000f0: cf2d 003e 81b9 583d 4c8a 7cbb b24d 0c3f
00000100: 9351 ab3e c76d 4c3e 4493 3cbd 6b5c e83c
00000110: c87d 59bd 4748 fbbd 632c 6bbd 9758 153e
00000120: df11 9fbe 0a7f 2e3e 9df9 8f3e 5050 d13e
00000130: abf8 7ebe b600 ccbd 3c98 9a3c 3a1e 0d3e
00000140: 4f78 8e3d c14a 323e 1d95 68be 1a17 883e
00000150: dde3 a53e be2b f93c 01d1 8ebd f3ee 5f3e
00000160: ad55 2cbd d963 90bd a2ac 313e ed9c c33d
00000170: 8867 af3d fbee 843e 9f15 ce3d eeb8 88be
00000180: 3a38 c7bc 5270 9abc 011d a53e 633e a1bb
00000190: 002b 1dbe 3708 aebd b024 18bd d180 5a3a
000001a0: 0cb6 e4bd cec3 f6bd 3230 5ebe f7a6 d93d
000001b0: 9df9 cd3c 5532 7b3d 4250 38be 9e88 b23d
000001c0: 3a8c 3abe 2edf 11be 79dd 463e 8c6c 873d
000001d0: 2a61 d0bc 9ed6 883e f293 503c 0214 82be
000001e0: 47d3 adbd 1bcc 20be f41b a7bc ab64 81bd
000001f0: 2432 c1bd e64c 95bc feb0 36be 2b57 05bd
00000200: 20dd 52be 4192 b8bd 890c a5bd 3785 0a3e
00000210: f581 40bd 45f9 7fbb e60a 36bc b523 e1bd
00000220: c2a7 ea3b 663c a6bd 93e9 953d 15d7 c03c
00000230: bc12 93be acc2 b23d 0411 f1bd a3ee 92bd
00000240: ca70 09be 99bd ebbd 8e5a f13d e758 2abe
00000250: 2058 f3bd d667 efbd b907 cdbd 7ed1 833d
00000260: 427a f5bd 32bf 3a3e 567d a43d 038e ca3e
00000270: 924d b3bd 4507 a33c 9037 92bd 3e2e 0e3e
00000280: 616a 903e 095c 1ebd 9274 f4bd 5b87 a73d
00000290: 6964 39be 3d7f 663e e7b6 b9bd f579 5f3b
000002a0: 3990 54bd 69d6 03be e11a 133e e44f fb3d
000002b0: f691 acbd 50df c6bc fcfe e8bb 9c35 6a3d
000002c0: d72a 06be 14d6 623e 29e8 363d eec2 c03e
000002d0: f654 0f3e 3825 9bbd c5ff 21be 5728 f13d
000002e0: c7f8 153e 8b4d 8b3b f234 b6bd c03d a2bd
000002f0: 66e3 ae3d 5815 b83d 0399 85bd ba62 863d
00000300: f076 053d 76b7 f63d 20bf 88bd 2f00 1d3e
00000310: fa61 a73d c1fe 0cbd abf1 78bc b65a ef3d
00000320: 6834 103e 2b20 be3d 6449 36bd b99b cd3c
00000330: 7c14 74bd b79b dcbc de19 4bbd d955 883c
00000340: 3488 de3d fff1 0cbe 75d6 b9bd 96ff 0dbd
00000350: 8536 a1bc fb04 8abd 9074 01bd eff7 0ebe
00000360: 7492 4cbd c873 6cbd 86f6 4c3c 2df7 69be
00000370: aa6d 9f3c a51b 23bd 17a8 8dbd 8df1 e6bc
00000380: f4fa 0ebe 60c6 003e 9601 e4bd 81ee eb3d
00000390: a8ce 0ebe e61f 953d dc6b 0dbd 2448 053d
000003a0: fa32 513d 480c dbbc f391 843b 9c28 a73d
000003b0: 8897 483d 20ad e53d 3d9a dfba 4df4 10be
000003c0: e70e 6f3d e4d0 9ebe 7ae0 043e ccdd edbb
000003d0: 2c9c da3c 9c4a 6abd ae7b a23d b4cc ed3c
000003e0: f1bb d9bd 1a33 3abe 92c5 2ebd dea6 b23d
000003f0: f457 a43d ec9f cabd 0746 a9bd c431 73be

sequential/conv2d/Conv2D f4 [12, 3, 3, 1]
-0.09069942 -0.00259874 0.35393247 0.047328983 -0.5735704 -0.2744958 0.2698104 0.070382856
-0.16506898 -0.031462666 -0.025589205 -0.1406052 0.0123411035 -0.0019448602 0.023270177 -0.018537235
0.0021169905 -0.13950783 0.42411256 -0.19734243 -0.26120555 0.19122751 -0.42165327 0.030827843
-0.24505234 -0.28751686 0.391232 -0.11413089 -0.33632487 0.44681022 -0.2462172 -0.16914777
0.45918015 -0.4297105 0.15415402 0.14859499 0.20585157 0.08073948 -0.12111642 0.062115796
0.003994501 0.27381626 -0.0870182 -0.13845403 0.31598258 0.16429149 -0.44775474 0.26315176
0.112086974 -0.22983323 0.09343646 0.41410416 -0.2883545 -0.1493812 0.07733065 0.08069283
-0.3648361 0.32690677 -0.06518431 -0.305597 0.19925657 -0.048945967 -0.15742101 0.17101598
0.10408774 0.1871298 0.21236326 0.22187994 0.10076245 -0.34683183 -0.38191172 -0.050607704
-0.46381605 -0.22880217 -0.100376345 -0.18696642 0.20199038 0.1033749 0.3307731 0.28773418
0.0077137104 -0.38629317 0.22188662 0.10549146 0.1622908 -0.16769774 0.20934223 0.03694862
0.3174552 0.18973666 0.099987336 0.15786572 0.2997863 -0.12520073 0.3297174 0.16324233
0.01679406 0.25187266 -0.03792793 0.14809778 0.17609107 0.3465496 0.19899039 0.02472323
0.06260753 -0.071497984 -0.100423716 -0.2291968
00000000: 9ec0 b9bd 9f4f 2abb a336 b53e 09dc 413d
00000010: 82d5 12bf b78a 8cbe 9724 8a3e e324 903d
00000020: d807 29be ffde 00bd 74a0 d1bc cffa 0fbe
00000030: 5732 4a3c aeea feba 19a1 be3c 66db 97bc
00000040: 35bd 0a3b 24db 0ebe 4825 d93e 2214 4abe
00000050: bcbc 85be 25d1 433e f0e2 d7be ac8a fc3c
00000060: 00ef 7abe 6935 93be 904f c83e 75bd e9bd
00000070: c632 acbe 4fc4 e43e 5d20 7cbe 1335 2dbe
00000080: a919 eb3e 0403 dcbe 8dda 1d3e 4929 183e
00000090: c1ca 523e be5a a53d e30b f8bd 226d 7e3d
000000a0: 4ee4 823b a531 8c3e 9936 b2bd e5c6 0dbe
000000b0: 78c8 a13e 073c 283e 1c40 e5be d4bb 863e
000000c0: db8d e53d 6759 6bbe 9d5b bf3d 7605 d43e
000000d0: 33a3 93be 63f7 18be 885f 9e3d 4842 a53d
000000e0: cccb babe 5360 a73e 5a7f 85bd 3677 9cbe
000000f0: ea09 4c3e 917b 48bd f932 21be d01e 2f3e
00000100: f42b d53d f49e 3f3e c175 593e 7f34 633e
00000110: 8b5c ce3d f193 b1be ef89 c3be 064a 4fbd
00000120: 4c79 edbe 1e4b 6abe 1d92 cdbd 2074 3fbe
00000130: 91d6 4e3e 38b6 d33d 175b a93e e551 933e
00000140: 4bc3 fc3b 38c8 c5be 3f36 633e e80b d83d
00000150: 8f2f 263e f5b8 2bbe cf5d 563e 7057 173d
00000160: 7d89 a23e 544a 423e 29c6 cc3d 8da7 213e
00000170: 977d 993e 9f34 00be b8d0 a83e ff28 273e
00000180: b293 893c 74f5 803e 515a 1bbd f2a6 173e
00000190: 3851 343e f36e b13e 23c4 4b3e 5f88 ca3c
000001a0: 6038 803d 896d 92bd f3aa cdbd 91b2 6abe

sequential/conv2d_1/Conv2D f4 [24, 3, 3, 12]
0.0035913973 -0.09329332 -0.32224298 -0.3826659 0.06340093 0.070137165 -0.043060917 0.23869672
-0.028661512 -0.011008466 0.054538067 0.12395489 0.1138453 0.108513854 -0.5551348 -0.36480662
0.12400266 -0.33987296 -0.30213103 0.3161987 0.048186317 0.004192005 -0.0041794986 0.15166815
0.24738924 -0.029855669 -0.28442383 -0.27568296 0.08605687 -0.04834472 -0.011662724 0.21539171
-0.09238895 0.016584935 -0.027085315 0.13263828 0.054890346 -0.109985165 0.06370331 -0.42067674
-0.19206847 0.15417722 0.09759455 0.01851076 -0.107661724 -0.103042774 -0.103193626 0.124705
0.13203835 -0.12414286 -0.15379669 -0.17861645 0.058587555 0.05063194 -0.28624886 -0.065692805
-0.124114834 -0.054212462 0.008109233 0.12786995 0.22868475 0.10754807 -0.3585983 -0.12544389
0.1097149 -0.11478334 -0.079135194 -0.10121681 0.023423683 0.0823125 -0.03220356 -0.08287825
0.27094856 0.07635672 0.09050757 0.090898365 0.086614326 0.1566363 0.00068361626 -0.022678033
0.20350257 0.038038187 -0.11723422 -0.00664984 0.02865325 -0.021385802 -0.08928327 -0.12430645
0.0037684473 0.13933153 -0.113311894 0.07863803 0.2727086 0.00026914146 0.12048277 -0.015966784
0.14469318 0.13001743 -0.18494114 0.15683973 0.015186102 0.18446663 -0.023125548 0.14169332
0.12007749 0.11484738 0.17252427 0.043780264 -0.09234082 -0.034374543 -0.03135182 -0.048084434
0.09245893 0.11402927 0.12949653 0.0046195462 0.034230493 0.09223494 0.042816225 0.03936781
0.17942488 -0.048394118 -0.07706868 -0.30397776 -0.110128775 0.38795128 0.1996161 -0.07019146
-0.11938748 -0.3436273 -0.15313637 -0.11855065 -0.14682342 0.051417805 0.02763246 -0.012032083
-0.285244 0.044567294 -0.00010943104 -0.4178033 -0.05588481 -0.062033527 -0.22217104 -0.30482048
-0.120862246 0.00497803 -0.060724266 0.24626629 0.12723315 0.39538905 -0.017931825 0.07726999
-0.15477951 0.07420038 0.17246573 -0.011597588 0.13365509 0.026745759 0.017445842 0.11729425
0.0824865 0.3501742 0.27307492 -0.12291122 0.07556897 -0.08134445 0.108497515 0.043332137
0.043987915 -0.06797162 0.007013114 0.039082207 -0.21878928 0.32283458 -0.027240818 -0.1858708
-0.016056549 -0.019261928 -0.11798805 -0.24184588 -0.07814285 0.12301082 -0.0030731112 0.23845823
0.17197049 0.14095186 -0.35006154 0.061067116 -0.23788959 0.15453105 -0.048081826 -0.1071864
0.08221717 -0.11008069 -0.17224269 0.10453264 0.036568847 0.22101262 0.20630051 0.0015819157
0.0034172547 0.14727233 0.08947972 0.13844788 0.037697807 -0.08495059 0.10480531 -0.030195925
-0.061324224 0.09410608 0.13218045 -0.110243745 0.0831429 0.013741535 0.055583015 0.055920515
-0.21892647 0.10525048 0.29075533 -0.074505 -0.27661338 -0.16671748 -0.08781369 -0.08697149
-0.059939772 -0.20148621 -0.3119199 -0.38087174 0.006675512 -0.043468013 0.064019315 0.2363866
-0.14420308 -0.3283219 -0.10494196 -0.07537278 -0.06975454 -0.0143992305 -0.06911971 -0.22534004
0.16499363 -0.08373047 0.13224979 0.14988492 -0.09243254 0.09664836 0.16281068 -0.2629536
0.03411192 0.02219368 0.09196869 -0.13622019 -0.14386047 0.118023604 0.080106 -0.06084706
00000000: a65d 6b3b 9110 bfbd 08fd a4be c9ec c3be
00000010: 59d8 813d 13a4 8f3d a560 30bd ea6c 743e
00000020: 8ccb eabc da5c 34bc 4f63 5f3d 10dc fd3d
00000030: ba27 e93d 833c de3d 501d 0ebf efc7 babe
00000040: 1bf5 fd3d d403 aebe ebb0 9abe cce4 a13e
00000050: 045f 453d 165d 893b 2df4 88bb e54e 1b3e
00000060: 9b53 7d3e e093 f4bc 00a0 91be 5126 8dbe
00000070: 963e b03d 1d05 46bd 0315 3fbc a58f 5c3e
00000080: 6b36 bdbd 21dd 873c 06e2 ddbc 54d2 073e
00000090: b3d4 603d e73f e1bd e276 823d f162 d7be
000000a0: 99ad 44be a2e0 1d3e a7df c73d e1a3 973c
000000b0: c07d dcbd 1708 d3bd 2e57 d3bd 5665 ff3d
000000c0: 1035 073e 9d3e febd e17c 1dbe 3be7 36be
000000d0: 81f9 6f3d 7063 4f3d 368f 92be f389 86bd
000000e0: eb2f febd e30d 5ebd 97dc 043c 57f0 023e
000000f0: 562c 6a3e 2a42 dc3d 329a b7be 5d74 00be
00000100: 35b2 e03d 8713 ebbd a211 a2bd c24a cfbd
00000110: 06e3 bf3c 7593 a83d e1e7 03bd 12bc a9bd
00000120: c5b9 8a3e e960 9c3d 085c b93d ec28 ba3d
00000130: da62 b13d 4465 203e b634 333a 48c7 b9bc
00000140: fa62 503e eecd 1b3d 7f18 f0bd e7e6 d9bb
00000150: 38ba ea3c 4731 afbc 26da b6bd 6194 febd
00000160: 0ef8 763b edac 0e3e 1110 e8bd fa0c a13d
00000170: 76a0 8b3e 8e1b 8d39 acbf f63d c6cc 82bc
00000180: 732a 143e 4a23 053e 3661 3dbe 989a 203e
00000190: 21cf 783c d2e4 3c3e ca71 bdbc 0e18 113e
000001a0: 30eb f53d 1a35 eb3d 34aa 303e ef52 333d
000001b0: 2f1d bdbd 52cc 0cbd c46a 00bd 2ff4 44bd
000001c0: 1c5b bd3d 2e88 e93d bd9a 043e 905f 973b
000001d0: 4635 0c3d ace5 bc3d 1160 2f3d 2440 213d
000001e0: 28bb 373e e938 46bd 2fd6 9dbd f9a2 9bbe
000001f0: 328b e1bd 8da1 c63e 2a68 4c3e 8ac0 8fbd
00000200: 6c81 f4bd ebef afbe c8cf 1cbe afca f2bd
00000210: e158 16be 7a9b 523d 785d e23c 3722 45bc
00000220: 800b 92be 328c 363d 587e e5b8 50ea d5be
00000230: 78e7 64bd de16 7ebd ce80 63be 6e11 9cbe
00000240: a086 f7bd be1e a33b 02ba 78bd 3b2d 7c3e
00000250: 6849 023e 6f70 ca3e c3e5 92bc bb3f 9e3d
00000260: 857e 1ebe 5ef6 973d db9a 303e cf03 3ebc
00000270: e1dc 083e ec19 db3c 95ea 8e3c f837 f03d
00000280: afee a83d 084a b33e 7ad0 8b3e e1b8 fbbd
00000290: e7c3 9a3d eb97 a6bd f233 de3d 0a7d 313d
000002a0: ac2c 343d b434 8bbd 44ce e53b aa14 203d
000002b0: 4c0a 60be 934a a53e 2328 dfbc ea54 3ebe
000002c0: 0689 83bc 31cb 9dbc b8a3 f1bd 72a6 77be
000002d0: 5c09 a0bd 19ed fb3d 4066 49bb 652e 743e
000002e0: 0819 303e af55 103e 443b b3be 8321 7a3d
000002f0: 5499 73be 633d 1e3e 73f1 44bd 8b84 dbbd
00000300: 7a61 a83d fc71 e1bd 6360 30be 3515 d63d
00000310: 37c9 153d 2251 623e 7140 533e 4858 cf3a
00000320: 05f4 5f3b 8fce 163e 2541 b73d 48c5 0d3e
00000330: 0469 1a3d 93fa adbd 2ba4 d63d 725d f7bc
00000340: 1c2f 7bbd b0ba c03d 505a 073e 79c7 e1bd
00000350: d346 aa3d 2d24 613c 04ab 633d e90c 653d
00000360: 432e 60be 908d d73d e2dd 943e 1496 98bd
00000370: 45a0 8dbe fdb7 2abe aad7 b3bd 1c1e b2bd
00000380: 6883 75bd 6752 4ebe f7b3 9fbe 9f01 c3be
00000390: 41be da3b 840b 32bd 8f1c 833d 540f 723e
000003a0: f9a9 13be cf19 a8be cfeb d6bd 0b5d 9abd
000003b0: 78db 8ebd c0ea 6bbc a28e 8dbd 8abf 66be
000003c0: 17f4 283e e17a abbd 7d6c 073e 6f7b 193e
000003d0: 464d bdbd 93ef c53d d8b7 263e dba1 86be
000003e0: f1b8 0b3d 85cf b53c 155a bc3d 4e7d 0bbe
000003f0: 2950 13be 5cb6 f13d 9d0e a43d c43a 79bd
