tf_model_optimization/model_quant_aware.tflite (tflite, 25336 bytes, 5 tensors)

conv2d_1/bias f4 [12]
0	0xbde33ba5	-0.11095361
1	0x3e6d0ce1	0.23149444
2	0xbc24772b	-0.0100381775
3	0xbd3bad20	-0.0458194
4	0x3b42ac18	0.0029704627
5	0xbdbbe0cb	-0.09173735
6	0xbdf09e05	-0.1174889
7	0xbe10769e	-0.14107749
8	0xbd41c7b3	-0.04730959
9	0xbbce10d2	-0.006288626
10	0xbe326766	-0.17422256
11	0xbe6d79d7	-0.2319101

sequential_1/quant_conv2d_1/LastValueQuant/FakeQuantWithMinMaxVarsPerChannel f4 [3, 3, 1, 12]
0	0x3e2de370	0.16981292
1	0xbed6ef9d	-0.41979685
2	0xbe860514	-0.2617575
3	0x3e992802	0.29913336
4	0x3ea48a8d	0.32136956
5	0x3c210aa6	0.009829199
6	0x3d0d319c	0.03447114
7	0xbc9a6de7	-0.018851234
8	0x3e65ab24	0.22428566
9	0xbf00e423	-0.5034811
10	0x3e137e9b	0.14403765
11	0xbe7c274d	-0.24624367
12	0xbd083e13	-0.033262324
13	0xbec0ef47	-0.37682554
14	0xbf209229	-0.6272302
15	0x3e2d4ef5	0.16924651
16	0xbed99e78	-0.42503715
17	0x3da10aa6	0.07863359
18	0x3d57819c	0.05261384
19	0x3e19390b	0.14963166
20	0x3dde7dcb	0.10863837
21	0xbea05a50	-0.31318903
22	0xbd84f3ed	-0.06491838
23	0x3c12b51f	0.008954315
24	0xbc8f69c3	-0.017506486
25	0x3e698d70	0.2280786
26	0xbf11661d	-0.5679644
27	0xbeffeea5	-0.4998676
28	0xbec6283b	-0.38702568
29	0x3cfd10bb	0.030891767
30	0x3dcc5c03	0.09978487
31	0x3b1a6de7	0.0023564042
32	0xbeaa7505	-0.33292404
33	0xbe942c91	-0.2894025
34	0x3e00cc4e	0.12577936
35	0x3e7791a4	0.24176651
36	0x3da882ac	0.08228049
37	0xbda93dae	-0.082637176
38	0x3e953120	0.29139042
39	0x3d61b439	0.055103514
40	0x3ed99e78	0.42503715
41	0x3e369c13	0.17832975
42	0xbe3610cf	-0.1777985
43	0x3d07202a	0.03298966
44	0x3e65ab24	0.22428566
45	0xbce355e9	-0.027750926
46	0x3e0f56fc	0.13998026
47	0x3db2ccbe	0.08730458
48	0x3dcff2f5	0.10153762
49	0xbe840208	-0.257828
50	0xbdf2c0c0	-0.118531704
51	0xbde9c3cd	-0.11414299
52	0xbe264f7b	-0.16241257
53	0x3d2c8b68	0.042125136
54	0x3dbd7f36	0.09252779
55	0x3df14bb9	0.11782021
56	0x3e5e7dcb	0.21727674
57	0xbe6f83a8	-0.23390067
58	0x3b84f3ed	0.0040573985
59	0x3e918fb5	0.28429952
60	0x3e63ab19	0.22233237
61	0x3e809f84	0.251217
62	0x00000000	0.0
63	0x3d992802	0.07478334
64	0xbe698ad8	-0.22806871
65	0x3dc94d4f	0.098291986
66	0xbe6bf136	-0.23041233
67	0xbd6c784a	-0.057731904
68	0xbee3dfce	-0.44506687
69	0x3e77a227	0.2418295
70	0x3e7521bd	0.23938651
71	0x3d84f424	0.06491879
72	0xbd8f69c3	-0.07002594
73	0xbeba2a40	-0.3636036
74	0x3e9f4e7e	0.31114572
75	0xbeb35aa4	-0.3503009
76	0x3ee0b231	0.4388595
77	0xbd8ce951	-0.06880439
78	0x3d5ef003	0.05442811
79	0x3d5dfdfc	0.054197297
80	0x3c65ab24	0.014017854
81	0x3e3eccad	0.18632765
82	0xbc04f3ed	-0.008114797
83	0x3dee6652	0.1164061
84	0xbdd71ea5	-0.10503892
85	0xbe9f1624	-0.3107158
86	0x3edbfeae	0.42967743
87	0xbd61b439	-0.055103514
88	0xbe30ed10	-0.17277932
89	0x3e210aa6	0.15726718
90	0x3e0b5602	0.13607028
91	0xbdffc607	-0.124889426
92	0x3e779c83	0.24180798
93	0x3eae8faf	0.34093997
94	0x3e83ea05	0.2576448
95	0x3e12b51f	0.14326905
96	0xbe1134af	-0.14180253
97	0x3ea0c766	0.3140213
98	0x3e21d5d5	0.15804227
99	0x3ec78197	0.38966057
100	0xbed44fad	-0.41467038
101	0x3d0fc982	0.035104282
102	0x3cedccd0	0.029028326
103	0x3e18042f	0.14845346
104	0xbee21477	-0.44156238
105	0x3e8e15b2	0.27750927
106	0xbdcb9583	-0.099406265
107	0xbe69d0a9	-0.22833504

sequential_1/quant_conv2d_1/Conv2D;sequential_1/quant_conv2d_1/LastValueQuant/FakeQuantWithMinMaxVarsPerChannel f4 [12, 3, 3, 1]
0	0x3e2de370	0.16981292
1	0xbd083e13	-0.033262324
2	0xbc8f69c3	-0.017506486
3	0x3da882ac	0.08228049
4	0x3dcff2f5	0.10153762
5	0x3e63ab19	0.22233237
6	0xbd8f69c3	-0.07002594
7	0xbdd71ea5	-0.10503892
8	0xbe1134af	-0.14180253
9	0xbed6ef9d	-0.41979685
10	0xbec0ef47	-0.37682554
11	0x3e698d70	0.2280786
12	0xbda93dae	-0.082637176
13	0xbe840208	-0.257828
14	0x3e809f84	0.251217
15	0xbeba2a40	-0.3636036
16	0xbe9f1624	-0.3107158
17	0x3ea0c766	0.3140213
18	0xbe860514	-0.2617575
19	0xbf209229	-0.6272302
20	0xbf11661d	-0.5679644
21	0x3e953120	0.29139042
22	0xbdf2c0c0	-0.118531704
23	0x00000000	0.0
24	0x3e9f4e7e	0.31114572
25	0x3edbfeae	0.42967743
26	0x3e21d5d5	0.15804227
27	0x3e992802	0.29913336
28	0x3e2d4ef5	0.16924651
29	0xbeffeea5	-0.4998676
30	0x3d61b439	0.055103514
31	0xbde9c3cd	-0.11414299
32	0x3d992802	0.07478334
33	0xbeb35aa4	-0.3503009
34	0xbd61b439	-0.055103514
35	0x3ec78197	0.38966057
36	0x3ea48a8d	0.32136956
37	0xbed99e78	-0.42503715
38	0xbec6283b	-0.38702568
39	0x3ed99e78	0.42503715
40	0xbe264f7b	-0.16241257
41	0xbe698ad8	-0.22806871
42	0x3ee0b231	0.4388595
43	0xbe30ed10	-0.17277932
44	0xbed44fad	-0.41467038
45	0x3c210aa6	0.009829199
46	0x3da10aa6	0.07863359
47	0x3cfd10bb	0.030891767
48	0x3e369c13	0.17832975
49	0x3d2c8b68	0.042125136
50	0x3dc94d4f	0.098291986
51	0xbd8ce951	-0.06880439
52	0x3e210aa6	0.15726718
53	0x3d0fc982	0.035104282
54	0x3d0d319c	0.03447114
55	0x3d57819c	0.05261384
56	0x3dcc5c03	0.09978487
57	0xbe3610cf	-0.1777985
58	0x3dbd7f36	0.09252779
59	0xbe6bf136	-0.23041233
60	0x3d5ef003	0.05442811
61	0x3e0b5602	0.13607028
62	0x3cedccd0	0.029028326
63	0xbc9a6de7	-0.018851234
64	0x3e19390b	0.14963166
65	0x3b1a6de7	0.0023564042
66	0x3d07202a	0.03298966
67	0x3df14bb9	0.11782021
68	0xbd6c784a	-0.057731904
69	0x3d5dfdfc	0.054197297
70	0xbdffc607	-0.124889426
71	0x3e18042f	0.14845346
72	0x3e65ab24	0.22428566
73	0x3dde7dcb	0.10863837
74	0xbeaa7505	-0.33292404
75	0x3e65ab24	0.22428566
76	0x3e5e7dcb	0.21727674
77	0xbee3dfce	-0.44506687
78	0x3c65ab24	0.014017854
79	0x3e779c83	0.24180798
80	0xbee21477	-0.44156238
81	0xbf00e423	-0.5034811
82	0xbea05a50	-0.31318903
83	0xbe942c91	-0.2894025
84	0xbce355e9	-0.027750926
85	0xbe6f83a8	-0.23390067
86	0x3e77a227	0.2418295
87	0x3e3eccad	0.18632765
88	0x3eae8faf	0.34093997
89	0x3e8e15b2	0.27750927
90	0x3e137e9b	0.14403765
91	0xbd84f3ed	-0.06491838
92	0x3e00cc4e	0.12577936
93	0x3e0f56fc	0.13998026
94	0x3b84f3ed	0.0040573985
95	0x3e7521bd	0.23938651
96	0xbc04f3ed	-0.008114797
97	0x3e83ea05	0.2576448
98	0xbdcb9583	-0.099406265
99	0xbe7c274d	-0.24624367
100	0x3c12b51f	0.008954315
101	0x3e7791a4	0.24176651
102	0x3db2ccbe	0.08730458
103	0x3e918fb5	0.28429952
104	0x3d84f424	0.06491879
105	0x3dee6652	0.1164061
106	0x3e12b51f	0.14326905
107	0xbe69d0a9	-0.22833504

sequential_1/quant_dense_1/LastValueQuant/FakeQuantWithMinMaxVars f4 [2028, 1]
0	0xbe36fc5e	-0.17869708
1	0x3d893d46	0.0670114
2	0xbd093d46	-0.0335057
3	0xbd94ad0c	-0.072595686
4	0x3df02b3b	0.117269956
5	0xbdf02b3b	-0.117269956
6	0xbdc26c24	-0.094932824
7	0xbda01cd2	-0.07817997
8	0xbe702b3b	-0.23453991
9	0xbe038564	-0.12843853
10	0xbe201cd2	-0.15635994
11	0xbe594bb0	-0.21220279
12	0xbe482407	-0.19544993
13	0xbcb6fc5e	-0.022337135
14	0xbde4bb76	-0.11168568
15	0xbe25d4b5	-0.16194423
16	0xbd94ad0c	-0.072595686
17	0xbe25d4b5	-0.16194423
18	0xbdab8c98	-0.083764255
19	0xbdd94bb0	-0.10610139
20	0xbec26c24	-0.3797313
21	0xbd893d46	-0.0670114
22	0xbe482407	-0.19544993
23	0xbe1a64ef	-0.15077566
24	0xbdcddbea	-0.10051711
25	0x3dd94bb0	0.10610139
26	0xbd093d46	-0.0335057
27	0xbdab8c98	-0.083764255
28	0xbe0ef529	-0.13960709
29	0xbdc26c24	-0.094932824
30	0xbd94ad0c	-0.072595686
31	0xbd94ad0c	-0.072595686
32	0xbee1df84	-0.4411584
33	0xbd36fc5e	-0.04467427
34	0xbd893d46	-0.0670114
35	0xbdb6fc5e	-0.08934854
36	0xbdb6fc5e	-0.08934854
37	0x3bb6fc5e	0.0055842837
38	0xbd201cd2	-0.039089985
39	0xbe201cd2	-0.15635994
40	0x3d94ad0c	0.072595686
41	0xbc36fc5e	-0.011168567
42	0x3d36fc5e	0.04467427
43	0x3cb6fc5e	0.022337135
44	0x3ce4bb76	0.02792142
45	0xbdf02b3b	-0.117269956
46	0xbd201cd2	-0.039089985
47	0xbdfb9b01	-0.12285424
48	0xbde4bb76	-0.11168568
49	0x3e038564	0.12843853
50	0xbe25d4b5	-0.16194423
51	0xbe093d46	-0.1340228
52	0x3ebf9032	0.374147
53	0xbdb6fc5e	-0.08934854
54	0xbdc26c24	-0.094932824
55	0xbd093d46	-0.0335057
56	0x3e482407	0.19544993
57	0xbe594bb0	-0.21220279
58	0xbe4ddbea	-0.20103422
59	0xbdcddbea	-0.10051711
60	0xbe80a972	-0.25129277
61	0x3e80a972	0.25129277
62	0xbe6a7358	-0.22895563
63	0xbdd94bb0	-0.10610139
64	0x3f31447b	0.6924512
65	0xbe36fc5e	-0.17869708
66	0xbe1a64ef	-0.15077566
67	0xbdb6fc5e	-0.08934854
68	0x3f0ef529	0.55842835
69	0xbe75e31e	-0.2401242
70	0xbe64bb76	-0.22337136
71	0xbe5f0393	-0.21778707
72	0xbe91d11b	-0.28479847
73	0x3efb9b01	0.49141696
74	0xbe482407	-0.19544993
75	0xbdc26c24	-0.094932824
76	0x3f0c1938	0.5472598
77	0xbe594bb0	-0.21220279
78	0xbdab8c98	-0.083764255
79	0xbd7b9b01	-0.06142712
80	0x3f066155	0.52492267
81	0xbe80a972	-0.25129277
82	0xbe3cb441	-0.18428136
83	0xbe14ad0c	-0.14519137
84	0xbe893d46	-0.2680456
85	0x3f161b05	0.5863498
86	0xbe893d46	-0.2680456
87	0xbda01cd2	-0.07817997
88	0x3ea2f8c4	0.31830418
89	0xbe482407	-0.19544993
90	0xbe0ef529	-0.13960709
91	0xbdd94bb0	-0.10610139
92	0x3ecafff8	0.39648414
93	0xbe594bb0	-0.21220279
94	0xbe31447b	-0.1731128
95	0xbe093d46	-0.1340228
96	0xbe2b8c98	-0.16752851
97	0x3ee4bb76	0.4467427
98	0xbe5393cd	-0.2066185
99	0xbd201cd2	-0.039089985
100	0x3e64bb76	0.22337136
101	0xbdc26c24	-0.094932824
102	0xbdf02b3b	-0.117269956
103	0xbdc26c24	-0.094932824
104	0x3e94ad0c	0.29038274
105	0xbdab8c98	-0.083764255
106	0xbe1a64ef	-0.15077566
107	0xbdab8c98	-0.083764255
108	0xbe093d46	-0.1340228
109	0x3e866155	0.26246133
110	0xbd7b9b01	-0.06142712
111	0xbd893d46	-0.0670114
112	0x3df02b3b	0.117269956
113	0xbd64bb76	-0.05584284
114	0x3cb6fc5e	0.022337135
115	0xbe2b8c98	-0.16752851
116	0x3dfb9b01	0.12285424
117	0xbd36fc5e	-0.04467427
118	0xbbb6fc5e	-0.0055842837
119	0x3cb6fc5e	0.022337135
120	0xbdd94bb0	-0.10610139
121	0x3e093d46	0.1340228
122	0xbda01cd2	-0.07817997
123	0xbe093d46	-0.1340228
124	0x3d893d46	0.0670114
125	0xbce4bb76	-0.02792142
126	0x3c36fc5e	0.011168567
127	0x3cb6fc5e	0.022337135
128	0x3d36fc5e	0.04467427
129	0xbc893d46	-0.01675285
130	0xbd7b9b01	-0.06142712
131	0xbd893d46	-0.0670114
132	0xbdf02b3b	-0.117269956
133	0x3e2b8c98	0.16752851
134	0xbd36fc5e	-0.04467427
135	0xbdb6fc5e	-0.08934854
136	0xbdfb9b01	-0.12285424
137	0xbe201cd2	-0.15635994
138	0xbd4ddbea	-0.050258555
139	0xbdf02b3b	-0.117269956
140	0xbe0ef529	-0.13960709
141	0x3c36fc5e	0.011168567
142	0xbdf02b3b	-0.117269956
143	0xbdf02b3b	-0.117269956
144	0xbd36fc5e	-0.04467427
145	0x3e482407	0.19544993
146	0xbd4ddbea	-0.050258555
147	0xbcb6fc5e	-0.022337135
148	0xbd7b9b01	-0.06142712
149	0xbda01cd2	-0.07817997
150	0x3cb6fc5e	0.022337135
151	0x3c893d46	0.01675285
152	0xbd64bb76	-0.05584284
153	0xbc893d46	-0.01675285
154	0xbdab8c98	-0.083764255
155	0xbce4bb76	-0.02792142
156	0xbbb6fc5e	-0.0055842837
157	0xbc893d46	-0.01675285
158	0x3d201cd2	0.039089985
159	0xbd201cd2	-0.039089985
160	0x3d94ad0c	0.072595686
161	0xbda01cd2	-0.07817997
162	0xbe0ef529	-0.13960709
163	0xbdab8c98	-0.083764255
164	0xbe9788fe	-0.29596704
165	0x3c36fc5e	0.011168567
166	0x3cb6fc5e	0.022337135
167	0xbc893d46	-0.01675285
168	0xbd093d46	-0.0335057
169	0xbc36fc5e	-0.011168567
170	0x3db6fc5e	0.08934854
171	0x3cb6fc5e	0.022337135
172	0xbe426c24	-0.18986565
173	0x3bb6fc5e	0.0055842837
174	0xbda01cd2	-0.07817997
175	0xbcb6fc5e	-0.022337135
176	0xbe6a7358	-0.22895563
177	0x3cb6fc5e	0.022337135
178	0x00000000	0.0
179	0xbdab8c98	-0.083764255
180	0xbe038564	-0.12843853
181	0xbdb6fc5e	-0.08934854
182	0x3c893d46	0.01675285
183	0xbe426c24	-0.18986565
184	0xbe36fc5e	-0.17869708
185	0x3ce4bb76	0.02792142
186	0xbde4bb76	-0.11168568
187	0xbdb6fc5e	-0.08934854
188	0xbe482407	-0.19544993
189	0xbdab8c98	-0.083764255
190	0xbd94ad0c	-0.072595686
191	0xbce4bb76	-0.02792142
192	0xbdcddbea	-0.10051711
193	0x3d36fc5e	0.04467427
194	0xbda01cd2	-0.07817997
195	0xbdc26c24	-0.094932824
196	0x3bb6fc5e	0.0055842837
197	0xbdf02b3b	-0.117269956
198	0xbd4ddbea	-0.050258555
199	0xbc36fc5e	-0.011168567
200	0xbd94ad0c	-0.072595686
201	0xbe426c24	-0.18986565
202	0xbe36fc5e	-0.17869708
203	0xbe426c24	-0.18986565
204	0xbdfb9b01	-0.12285424
205	0x3e5f0393	0.21778707
206	0xbe36fc5e	-0.17869708
207	0xbe36fc5e	-0.17869708
208	0x3e9a64ef	0.3015513
209	0xbe0ef529	-0.13960709
210	0xbdb6fc5e	-0.08934854
211	0xbdcddbea	-0.10051711
212	0x3bb6fc5e	0.0055842837
213	0xbe838564	-0.25687706
214	0xbe1a64ef	-0.15077566
215	0xbe5393cd	-0.2066185
216	0xbe838564	-0.25687706
217	0x3ef02b3b	0.46907982
218	0xbd94ad0c	-0.072595686
219	0xbd36fc5e	-0.04467427
220	0x3f11d11b	0.56959695
221	0xbd64bb76	-0.05584284
222	0xbda01cd2	-0.07817997
223	0xbdb6fc5e	-0.08934854
224	0x3df02b3b	0.117269956
225	0xbe5393cd	-0.2066185
226	0xbdab8c98	-0.083764255
227	0xbe36fc5e	-0.17869708
228	0xbe80a972	-0.25129277
229	0x3f2b8c98	0.67011404
230	0xbe038564	-0.12843853
231	0xbdc26c24	-0.094932824
232	0x3f0c1938	0.5472598
233	0xbdc26c24	-0.094932824
234	0xbd093d46	-0.0335057
235	0xbd093d46	-0.0335057
236	0x3e594bb0	0.21220279
237	0xbe426c24	-0.18986565
238	0xbde4bb76	-0.11168568
239	0xbd093d46	-0.0335057
240	0xbe94ad0c	-0.29038274
241	0x3f358e65	0.709204
242	0xbe093d46	-0.1340228
243	0xbe14ad0c	-0.14519137
244	0x3ebf9032	0.374147
245	0xbe0ef529	-0.13960709
246	0xbd4ddbea	-0.050258555
247	0xbdfb9b01	-0.12285424
248	0x3e4ddbea	0.20103422
249	0xbdd94bb0	-0.10610139
250	0xbbb6fc5e	-0.0055842837
251	0x3d4ddbea	0.050258555
252	0xbdf02b3b	-0.117269956
253	0x3efb9b01	0.49141696
254	0xbe3cb441	-0.18428136
255	0xbe64bb76	-0.22337136

sequential_1/quant_dense_1/MatMul;sequential_1/quant_dense_1/LastValueQuant/FakeQuantWithMinMaxVars f4 [1, 2028]
0	0xbe36fc5e	-0.17869708
1	0x3d893d46	0.0670114
2	0xbd093d46	-0.0335057
3	0xbd94ad0c	-0.072595686
4	0x3df02b3b	0.117269956
5	0xbdf02b3b	-0.117269956
6	0xbdc26c24	-0.094932824
7	0xbda01cd2	-0.07817997
8	0xbe702b3b	-0.23453991
9	0xbe038564	-0.12843853
10	0xbe201cd2	-0.15635994
11	0xbe594bb0	-0.21220279
12	0xbe482407	-0.19544993
13	0xbcb6fc5e	-0.022337135
14	0xbde4bb76	-0.11168568
15	0xbe25d4b5	-0.16194423
16	0xbd94ad0c	-0.072595686
17	0xbe25d4b5	-0.16194423
18	0xbdab8c98	-0.083764255
19	0xbdd94bb0	-0.10610139
20	0xbec26c24	-0.3797313
21	0xbd893d46	-0.0670114
22	0xbe482407	-0.19544993
23	0xbe1a64ef	-0.15077566
24	0xbdcddbea	-0.10051711
25	0x3dd94bb0	0.10610139
26	0xbd093d46	-0.0335057
27	0xbdab8c98	-0.083764255
28	0xbe0ef529	-0.13960709
29	0xbdc26c24	-0.094932824
30	0xbd94ad0c	-0.072595686
31	0xbd94ad0c	-0.072595686
32	0xbee1df84	-0.4411584
33	0xbd36fc5e	-0.04467427
34	0xbd893d46	-0.0670114
35	0xbdb6fc5e	-0.08934854
36	0xbdb6fc5e	-0.08934854
37	0x3bb6fc5e	0.0055842837
38	0xbd201cd2	-0.039089985
39	0xbe201cd2	-0.15635994
40	0x3d94ad0c	0.072595686
41	0xbc36fc5e	-0.011168567
42	0x3d36fc5e	0.04467427
43	0x3cb6fc5e	0.022337135
44	0x3ce4bb76	0.02792142
45	0xbdf02b3b	-0.117269956
46	0xbd201cd2	-0.039089985
47	0xbdfb9b01	-0.12285424
48	0xbde4bb76	-0.11168568
49	0x3e038564	0.12843853
50	0xbe25d4b5	-0.16194423
51	0xbe093d46	-0.1340228
52	0x3ebf9032	0.374147
53	0xbdb6fc5e	-0.08934854
54	0xbdc26c24	-0.094932824
55	0xbd093d46	-0.0335057
56	0x3e482407	0.19544993
57	0xbe594bb0	-0.21220279
58	0xbe4ddbea	-0.20103422
59	0xbdcddbea	-0.10051711
60	0xbe80a972	-0.25129277
61	0x3e80a972	0.25129277
62	0xbe6a7358	-0.22895563
63	0xbdd94bb0	-0.10610139
64	0x3f31447b	0.6924512
65	0xbe36fc5e	-0.17869708
66	0xbe1a64ef	-0.15077566
67	0xbdb6fc5e	-0.08934854
68	0x3f0ef529	0.55842835
69	0xbe75e31e	-0.2401242
70	0xbe64bb76	-0.22337136
71	0xbe5f0393	-0.21778707
72	0xbe91d11b	-0.28479847
73	0x3efb9b01	0.49141696
74	0xbe482407	-0.19544993
75	0xbdc26c24	-0.094932824
76	0x3f0c1938	0.5472598
77	0xbe594bb0	-0.21220279
78	0xbdab8c98	-0.083764255
79	0xbd7b9b01	-0.06142712
80	0x3f066155	0.52492267
81	0xbe80a972	-0.25129277
82	0xbe3cb441	-0.18428136
83	0xbe14ad0c	-0.14519137
84	0xbe893d46	-0.2680456
85	0x3f161b05	0.5863498
86	0xbe893d46	-0.2680456
87	0xbda01cd2	-0.07817997
88	0x3ea2f8c4	0.31830418
89	0xbe482407	-0.19544993
90	0xbe0ef529	-0.13960709
91	0xbdd94bb0	-0.10610139
92	0x3ecafff8	0.39648414
93	0xbe594bb0	-0.21220279
94	0xbe31447b	-0.1731128
95	0xbe093d46	-0.1340228
96	0xbe2b8c98	-0.16752851
97	0x3ee4bb76	0.4467427
98	0xbe5393cd	-0.2066185
99	0xbd201cd2	-0.039089985
100	0x3e64bb76	0.22337136
101	0xbdc26c24	-0.094932824
102	0xbdf02b3b	-0.117269956
103	0xbdc26c24	-0.094932824
104	0x3e94ad0c	0.29038274
105	0xbdab8c98	-0.083764255
106	0xbe1a64ef	-0.15077566
107	0xbdab8c98	-0.083764255
108	0xbe093d46	-0.1340228
109	0x3e866155	0.26246133
110	0xbd7b9b01	-0.06142712
111	0xbd893d46	-0.0670114
112	0x3df02b3b	0.117269956
113	0xbd64bb76	-0.05584284
114	0x3cb6fc5e	0.022337135
115	0xbe2b8c98	-0.16752851
116	0x3dfb9b01	0.12285424
117	0xbd36fc5e	-0.04467427
118	0xbbb6fc5e	-0.0055842837
119	0x3cb6fc5e	0.022337135
120	0xbdd94bb0	-0.10610139
121	0x3e093d46	0.1340228
122	0xbda01cd2	-0.07817997
123	0xbe093d46	-0.1340228
124	0x3d893d46	0.0670114
125	0xbce4bb76	-0.02792142
126	0x3c36fc5e	0.011168567
127	0x3cb6fc5e	0.022337135
128	0x3d36fc5e	0.04467427
129	0xbc893d46	-0.01675285
130	0xbd7b9b01	-0.06142712
131	0xbd893d46	-0.0670114
132	0xbdf02b3b	-0.117269956
133	0x3e2b8c98	0.16752851
134	0xbd36fc5e	-0.04467427
135	0xbdb6fc5e	-0.08934854
136	0xbdfb9b01	-0.12285424
137	0xbe201cd2	-0.15635994
138	0xbd4ddbea	-0.050258555
139	0xbdf02b3b	-0.117269956
140	0xbe0ef529	-0.13960709
141	0x3c36fc5e	0.011168567
142	0xbdf02b3b	-0.117269956
143	0xbdf02b3b	-0.117269956
144	0xbd36fc5e	-0.04467427
145	0x3e482407	0.19544993
146	0xbd4ddbea	-0.050258555
147	0xbcb6fc5e	-0.022337135
148	0xbd7b9b01	-0.06142712
149	0xbda01cd2	-0.07817997
150	0x3cb6fc5e	0.022337135
151	0x3c893d46	0.01675285
152	0xbd64bb76	-0.05584284
153	0xbc893d46	-0.01675285
154	0xbdab8c98	-0.083764255
155	0xbce4bb76	-0.02792142
156	0xbbb6fc5e	-0.0055842837
157	0xbc893d46	-0.01675285
158	0x3d201cd2	0.039089985
159	0xbd201cd2	-0.039089985
160	0x3d94ad0c	0.072595686
161	0xbda01cd2	-0.07817997
162	0xbe0ef529	-0.13960709
163	0xbdab8c98	-0.083764255
164	0xbe9788fe	-0.29596704
165	0x3c36fc5e	0.011168567
166	0x3cb6fc5e	0.022337135
167	0xbc893d46	-0.01675285
168	0xbd093d46	-0.0335057
169	0xbc36fc5e	-0.011168567
170	0x3db6fc5e	0.08934854
171	0x3cb6fc5e	0.022337135
172	0xbe426c24	-0.18986565
173	0x3bb6fc5e	0.0055842837
174	0xbda01cd2	-0.07817997
175	0xbcb6fc5e	-0.022337135
176	0xbe6a7358	-0.22895563
177	0x3cb6fc5e	0.022337135
178	0x00000000	0.0
179	0xbdab8c98	-0.083764255
180	0xbe038564	-0.12843853
181	0xbdb6fc5e	-0.08934854
182	0x3c893d46	0.01675285
183	0xbe426c24	-0.18986565
184	0xbe36fc5e	-0.17869708
185	0x3ce4bb76	0.02792142
186	0xbde4bb76	-0.11168568
187	0xbdb6fc5e	-0.08934854
188	0xbe482407	-0.19544993
189	0xbdab8c98	-0.083764255
190	0xbd94ad0c	-0.072595686
191	0xbce4bb76	-0.02792142
192	0xbdcddbea	-0.10051711
193	0x3d36fc5e	0.04467427
194	0xbda01cd2	-0.07817997
195	0xbdc26c24	-0.094932824
196	0x3bb6fc5e	0.0055842837
197	0xbdf02b3b	-0.117269956
198	0xbd4ddbea	-0.050258555
199	0xbc36fc5e	-0.011168567
200	0xbd94ad0c	-0.072595686
201	0xbe426c24	-0.18986565
202	0xbe36fc5e	-0.17869708
203	0xbe426c24	-0.18986565
204	0xbdfb9b01	-0.12285424
205	0x3e5f0393	0.21778707
206	0xbe36fc5e	-0.17869708
207	0xbe36fc5e	-0.17869708
208	0x3e9a64ef	0.3015513
209	0xbe0ef529	-0.13960709
210	0xbdb6fc5e	-0.08934854
211	0xbdcddbea	-0.10051711
212	0x3bb6fc5e	0.0055842837
213	0xbe838564	-0.25687706
214	0xbe1a64ef	-0.15077566
215	0xbe5393cd	-0.2066185
216	0xbe838564	-0.25687706
217	0x3ef02b3b	0.46907982
218	0xbd94ad0c	-0.072595686
219	0xbd36fc5e	-0.04467427
220	0x3f11d11b	0.56959695
221	0xbd64bb76	-0.05584284
222	0xbda01cd2	-0.07817997
223	0xbdb6fc5e	-0.08934854
224	0x3df02b3b	0.117269956
225	0xbe5393cd	-0.2066185
226	0xbdab8c98	-0.083764255
227	0xbe36fc5e	-0.17869708
228	0xbe80a972	-0.25129277
229	0x3f2b8c98	0.67011404
230	0xbe038564	-0.12843853
231	0xbdc26c24	-0.094932824
232	0x3f0c1938	0.5472598
233	0xbdc26c24	-0.094932824
234	0xbd093d46	-0.0335057
235	0xbd093d46	-0.0335057
236	0x3e594bb0	0.21220279
237	0xbe426c24	-0.18986565
238	0xbde4bb76	-0.11168568
239	0xbd093d46	-0.0335057
240	0xbe94ad0c	-0.29038274
241	0x3f358e65	0.709204
242	0xbe093d46	-0.1340228
243	0xbe14ad0c	-0.14519137
244	0x3ebf9032	0.374147
245	0xbe0ef529	-0.13960709
246	0xbd4ddbea	-0.050258555
247	0xbdfb9b01	-0.12285424
248	0x3e4ddbea	0.20103422
249	0xbdd94bb0	-0.10610139
250	0xbbb6fc5e	-0.0055842837
251	0x3d4ddbea	0.050258555
252	0xbdf02b3b	-0.117269956
253	0x3efb9b01	0.49141696
254	0xbe3cb441	-0.18428136
255	0xbe64bb76	-0.22337136
